DL/cnn_mnist.pth (torch, 831401 bytes, 8 tensors)

net.0.weight f4 [16, 1, 3, 3]
00000000: 84cc 413e 1219 04bc 045d 8ebe 578e c83e
00000010: 4751 e13e 0644 2c3e 90bc 34bd a2ec 68bd
00000020: 7a72 903e c7b4 42bd 55f8 6b3e b504 b2be
00000030: 70b6 0fbd 4a40 af3e f51e db3e 8f04 cc3e
00000040: aba7 8e3e b855 973e c6b5 3f3e bc1b fa3e
00000050: 3b41 d5bc 9114 e33e a54a 903e 4075 8dbe
00000060: 092b f4bd 02fa 903e 8703 10be 142a 2ebe
00000070: b286 91be cb04 d63e eafa 913e 6c46 053f
00000080: 3339 dc3e fac3 08be 328d d63e 1ede 7d3e
00000090: 5974 febd b497 cabe c258 303e 1c49 08bf
000000a0: d832 8dbe 5d48 a03e d025 00bf ec8d 753e
000000b0: 6d85 a43e bc6f 86be 2380 e63e 520c 103f
000000c0: 30e3 a6bd 01b8 f7bd f570 143d cb66 f5bd
000000d0: fd0c 113e f176 a53c 160b dbbe a94b 5bbd
000000e0: 4b96 1cbe e624 413e 29de 88bd 682f 113f
000000f0: f6ea 013d 741b ce3e 4d75 783e 9ec6 48be
00000100: 9ac4 d23e f62c cf3e b55c 323e fe2e 3f3d
00000110: cc6b 56be 41da 2d3e f924 b33e e4f8 9e3e
00000120: ff0f 54be bce3 9f3e 8ec6 8e3e 0393 0abf
00000130: 52e1 713e c24b 7938 365f 05bf cdc0 963e
00000140: 1b90 8abe 9398 5b3e df7d 913e 07a3 f83e
00000150: 3be4 9dbe 9637 ec3d 3ac0 9e3d 0bf3 54be
00000160: 4e3d 0fbf adea 98be db07 c53a b7f3 ab3d
00000170: 923b a43e cb01 b13e 3273 2fbe 0726 85bc
00000180: cbb7 b03e d2af 4abe 13b7 363e 940c e43d
00000190: 5f32 583e 5462 d03d 98d9 243e aeef 553c
000001a0: 4c81 593e 82d6 7c3d 47f3 9e3e 3a16 c43d
000001b0: 5d02 f33e acbf 1dbe 7a43 b2be aba9 363e
000001c0: 3de6 c23e 9a4f e0be b4f0 af3e 917b 31bd
000001d0: 1007 49be 142e cd3e 3dbc 0c3e b098 ae3e
000001e0: 577b a33e 17d7 ae3e c88c 49bd 01a3 78be
000001f0: 7750 50be a1fb f7be 1c34 ff3e e3e9 09be
00000200: 4e85 8abe c85e 083e 64fb ff3d 2e44 20be
00000210: 8c96 9dbe 2761 133e c765 923e eb57 22be
00000220: 09e1 c03e 6606 c23e 4af7 ce3e da4a ee3e
00000230: f54a 203e a94c d0bd 40f8 133c ae39 4d3d
0.18925673 -0.008062618 -0.2780534 0.39171097 0.44007322 0.16822824 -0.04412514 -0.056866296
0.2821234 -0.047535684 0.2304395 -0.34769216 -0.035086095 0.34228736 0.42797056 0.39847228
0.27862296 0.29557586 0.18721685 0.48849285 -0.02603208 0.44351628 0.2818195 -0.27628517
-0.11922271 0.2831574 -0.14063846 -0.17008239 -0.28423077 0.41800532 0.28511745 0.5206058
0.4301239 -0.13356009 0.41904598 0.24791762 -0.12424535 -0.39568865 0.17221358 -0.53236556
-0.27577853 0.3130521 -0.500577 0.2397992 0.32133046 -0.26257122 0.45019636 0.562688
-0.08148801 -0.12095643 0.036240537 -0.11982497 0.14165111 0.020198317 -0.42781895 -0.053538952
-0.15291707 0.18861732 -0.06682999 0.5671296 0.031718217 0.4025532 0.24263497 -0.19607016
0.4116562 0.4046399 0.17418177 0.046675675 -0.20939559 0.16977789 0.34989145 0.31049263
-0.20709227 0.31228435 0.2788586 -0.5413057 0.23621109 5.943678e-05 -0.52098405 0.2944397
-0.2706307 0.21444921 0.28416345 0.4856188 -0.3083819 0.1153404 0.07751508 -0.20795839
-0.5595292 -0.29866543 0.0015032248 0.08396094 0.320767 0.3457168 -0.17133787 -0.016253484
0.34515223 -0.19793633 0.17843275 0.111352116 0.21112965 0.101750046 0.1609863 0.013057632
0.21240729 0.061728008 0.3104498 0.09574552 0.4746274 -0.15405148 -0.34817106 0.1783816
0.38066283 -0.4381073 0.3436333 -0.043330733 -0.196316 0.40074217 0.13743682 0.34100866
0.31930038 0.34148476 -0.049206525 -0.24280931 -0.20343195 -0.48434165 0.49844444 -0.13468127
-0.27054828 0.13317406 0.12499121 -0.15651008 -0.3077892 0.1439253 0.28593275 -0.1585385
0.37671688 0.37895507 0.40423042 0.46541482 0.15653594 -0.10170872 0.009031355 0.050103836

net.0.bias f4 [16]
00000000: d3d6 603e 8369 fdbc 40c5 39bc b9b4 87bc
00000010: f96e 963e 2747 e0bc ed62 02bb 1333 073e
00000020: 7e92 be3e bdd7 d13d 8786 f33c 6883 dc3d
00000030: b4ba fbbb 623f 793a 9e89 61ba 4785 bebc
0.21956949 -0.030934101 -0.011338532 -0.016565667 0.2938154 -0.027377678 -0.001989539 0.13203077
0.3722114 0.10246227 0.029727234 0.10767251 -0.007682169 0.0009508041 -0.00086035754 -0.023256911

net.3.weight f4 [32, 16, 3, 3]
00000000: 9553 383d 2e06 bf3c ccb0 5b3a 90e1 9e3c
00000010: dc88 96ba ee13 783a d732 38bd 5a8b 913d
00000020: 6bae 0f3a 5397 b73d 5b39 603d f0b4 a4bd
00000030: 0aff 3b3d 2f51 abbb c772 b53d 6578 223c
00000040: 1129 ce3c 0c8c 9abd 26d3 3b3c 0209 253d
00000050: f457 3ebd 6887 85bd 2d62 e63c 8cc8 4a3d
00000060: 26ff b0bd 478b 993d 0712 1ebb cf35 3a3d
00000070: 17be 58bd c04b a1bd b9d3 8c3d 7843 8c3d
00000080: 080e 893c 4033 203d 9c0b 31bd cd28 acbc
00000090: 2f7b 56bc 30cf 0dbe 47d4 88bd 345a febd
000000a0: 96fe 47be 42f3 d5bd 92ce 093d e05a c9bd
000000b0: 0b93 19be 0d7d 573d 0ef6 aa3c 7e32 69bd
000000c0: 6c67 0d3c 796d 1bbd c679 0e3d 4669 873c
000000d0: 6ea2 8b3c 4af9 6c3d e7c7 d6bb 27ec f53c
000000e0: 535d 3bbd ff5b 4e3c a459 c3bc 5654 e93d
000000f0: ba32 fb3c e773 1a3d e492 acbc a279 94bd
00000100: 75c7 4f3d fd8b a33c 39ee 78bd 6c6e c8bd
00000110: 88a0 093d 17f7 273d 1c15 85bb a9b9 913c
00000120: af46 05be 8bad 4fbd d427 c3bd 76db c53b
00000130: 41b4 a4bd 9d42 96bd c121 b1bd 664d 3cbd
00000140: 58c8 3dbd 5249 2bbe 4862 bebd 581b 09be
00000150: 24eb 003d ad50 c13d 446d df3b af64 92bc
00000160: 0979 473e 4c5f 673e 9ad0 433d 2053 35bc
00000170: 31b6 debd 8f99 64bd 729f 94bd 9552 11bd
00000180: 0bef 0abc f90c 823d e369 b43d 843c a23c
00000190: 5d9f 9cbb 84a7 33bc ee99 e2bd 15cd 773d
000001a0: 8926 b9bd aee2 64bd 0499 0e3d 6a34 3bbc
000001b0: 51c6 c83d a87d 943d 053d 583b bff1 93bc
000001c0: 19b8 e4ba 3511 31be ee75 d3bd 44c3 a43d
000001d0: 2110 aabc f3dc c13c 011b 0c3d a855 94bd
000001e0: d5b1 3ebd f9b6 8bbb e42e 22bd 68a6 3cbd
000001f0: 884d 23bd 4d51 9a3d 5ffd 0b3e 9282 12bd
00000200: 1f91 893c 01ad c83d 001b 363e c9e6 763d
00000210: 6914 d3bb e72d 853d 029d f5bc 427f e53d
00000220: c331 8dbd 445b 73bd 34c4 6dbd 28a3 8d3d
00000230: e18a b23d 9ddb 6bbd 6402 b03d 5939 4fb8
00000240: 8e06 8c3d 4b69 ee3d ca7e 323d f751 433d
00000250: 355d b23d bb06 b33d 5958 16be 49f4 d2bd
00000260: af1a b43d 8279 913d 4c8a ad3d 923d b4b9
00000270: c262 dc3c ad44 e73b 7524 923d 1ac5 1cbe
00000280: d3ad 74bd e6be 7ebc b99e a83d a504 0b3d
00000290: 38ba b03b 7cf1 7dbd c333 8abd 3866 8f3c
000002a0: f13a 96bc 9529 a83c 1d6c 063e c941 c23d
000002b0: 49f8 763d 7b6e 7d3b ec7b 84bd 89ec 243c
000002c0: a36b 113d d504 9b3c f825 9dbb ee92 543d
000002d0: 2e9f 84bd fa27 55be 8843 52be bbe3 e5bd
000002e0: d0c4 efbd 8e14 0cbe c9e8 1ebc 3e6b 0cbd
000002f0: fb83 aebc 2606 383d 2079 dabb 5a80 e8bd
00000300: 559d a83d 47a8 02bd ea90 153c d88d 63bd
00000310: 78f9 ba3d 6a21 763d 7404 1abd 522a 5a3c
00000320: 8e8f 98bd 4b5a 15be 2654 8e3c 95dd 873d
00000330: 4386 9cbd 8393 19be 3fce 8bbd 93d5 a23d
00000340: b633 0dbc cf28 173d 52c0 3a3d 310a a23d
00000350: eb76 3f3d 1153 80bd c6de d7bd ceff 9f3d
00000360: e53c d6bd 7f95 f3bd 2c49 c5bd bec2 96bd
00000370: 03ff 32bd a819 31be 0f78 82bd b7fe 9bbd
00000380: e06f 753d e360 99bd 981c bcbd 3c6c f4bd
00000390: 24fb f93c dceb 913d 5d34 6abd 7665 863d
000003a0: 4623 4c3e 0125 623e d4b7 fa3c d402 0fbd
000003b0: d309 6f3d 51ba 0abd 9b9f aa3d cc41 a53c
000003c0: a24d a1bd 70bb 693c 9a7f be3d 635b 103c
000003d0: 508d 02bc 61fb 1cbd 6e65 69bd a92f ef3b
000003e0: 7a7d 563d 79b2 1ebd f5fb dabd 345b 3cbd
000003f0: 6187 65bd 196f 273c f6ba 8ebc d7ba bfbd
0.045001585 0.023318376 0.0008380532 0.019394666 -0.0011484879 0.0009463419 -0.04497036 0.07106657
0.00054810074 0.0896441 0.0547422 -0.080423236 0.04589752 -0.0052281837 0.08859783 0.0099164
0.025166066 -0.07546243 0.011463916 0.040291794 -0.046470597 -0.06519967 0.028122986 0.049507663
-0.08642416 0.07497268 -0.0024119632 0.045461472 -0.05291566 -0.07875776 0.068763204 0.06848806
0.016730323 0.039111376 -0.043223962 -0.02101555 -0.013090893 -0.13848567 -0.06681114 -0.12419549
-0.1953071 -0.10446788 0.033644266 -0.09831786 -0.14997499 0.052609492 0.020869281 -0.05693292
0.008630615 -0.037946198 0.0347841 0.01652969 0.017045226 0.057854928 -0.006554592 0.030019833
-0.045743298 0.012595176 -0.023846455 0.11393039 0.030663837 0.03770819 -0.021066137 -0.07249762
0.050727326 0.019964213 -0.06077406 -0.09786686 0.03360036 0.041007128 -0.0040613543 0.017788725
-0.13015245 -0.050702613 -0.09529081 0.0060381247 -0.08042193 -0.07336924 -0.08649016 -0.04597225
-0.04633364 -0.16727188 -0.092960894 -0.13389337 0.031474248 0.09439216 0.0068184454 -0.017870275
0.19479765 0.22594947 0.04780636 -0.011067182 -0.10874594 -0.055810507 -0.07256974 -0.035479147
-0.008479844 0.063501306 0.08809259 0.019804247 -0.00477974 -0.010965232 -0.11064516 0.060498316
-0.09040553 -0.05588024 0.034813896 -0.011426071 0.09803451 0.072505295 0.0032995355 -0.01805961
-0.0017449885 -0.1729172 -0.10325228 0.080450565 -0.020759644 0.023664927 0.03420544 -0.072429
-0.046556313 -0.0042637554 -0.0395955 -0.046057135 -0.03986886 0.07535038 0.13670872 -0.035769053
0.016792832 0.09798623 0.17783737 0.060278688 -0.006441642 0.06502896 -0.029982094 0.11205913
-0.06894257 -0.05941321 -0.058048442 0.06915885 0.08717895 -0.057582486 0.08594206 -4.9406055e-05
0.06837188 0.11641177 0.043577947 0.04768559 0.08709184 0.08741518 -0.1468214 -0.103005
0.08794152 0.07103254 0.08473644 -0.0003437815 0.02690256 0.0070577473 0.0713586 -0.15309563
-0.059736084 -0.015548443 0.08233399 0.033939976 0.0053932928 -0.061997876 -0.06748154 0.017504796
-0.018338652 0.02052764 0.1312718 0.09485204 0.060295377 0.0038670588 -0.06468949 0.01006616
0.03550304 0.018923203 -0.004795786 0.051897936 -0.064756736 -0.20816031 -0.20533574 -0.11225077
-0.11707461 -0.13679716 -0.009699055 -0.03428196 -0.021303168 0.04492774 -0.0066672713 -0.11352606
0.08233134 -0.031898763 0.0091287885 -0.055555195 0.09129614 0.06009046 -0.037601903 0.013315754
-0.07449256 -0.14585225 0.01737411 0.0663406 -0.07642796 -0.14997678 -0.06826448 0.07950892
-0.008618286 0.036904152 0.045593567 0.079121 0.04674427 -0.06265844 -0.105405375 0.07812463
-0.104608335 -0.118937485 -0.09633097 -0.07361363 -0.04370023 -0.17294943 -0.063705556 -0.076169424
0.059921145 -0.07489183 -0.09185141 -0.119347066 0.030515261 0.07125065 -0.057178844 0.06562321
0.19935331 0.22084428 0.030605234 -0.034914806 0.05835898 -0.03386909 0.083312236 0.020172976
-0.078761354 0.01426588 0.09301682 0.008810851 -0.007968262 -0.03832567 -0.056981497 0.0072993827
0.052365758 -0.038744424 -0.10692588 -0.045985416 -0.05603731 0.010219359 -0.017423134 -0.09361809

net.3.bias f4 [32]
00000000: 6600 aabd 0e95 e9bd 8cd3 81bd 5814 b9bd
00000010: e4a1 e0bd 710c 1dbd d0b6 53bd 295b 853d
00000020: 7a67 06be 9020 eebd 70fa 66bd cac4 b9bc
00000030: e2c8 a4bc 526c c8bc 42b2 bb3c 3bab 95bc
00000040: 078f 8ebd 3d7d e3bd 7fe3 6ebd 0b58 f2bd
00000050: f13a 72bb f13f 4dbd d9ad 12be b3be 23bc
00000060: bc7a 85bd 024d 88bc 5a65 ebbd e339 543d
00000070: 1c5a d2bc 9c95 5fbd b392 fabc 3f3f b0bd
-0.08300857 -0.11405383 -0.063391775 -0.090370834 -0.10968378 -0.038341943 -0.051688015 0.06511528
-0.1312541 -0.116273046 -0.05639118 -0.022676844 -0.02011532 -0.024465714 0.022912148 -0.018270126
-0.06960874 -0.11107872 -0.058322426 -0.11833199 -0.0036961401 -0.050109807 -0.1432413 -0.009994197
-0.0651755 -0.016638283 -0.11493941 0.051813018 -0.025677733 -0.054586038 -0.03058753 -0.08605813

net.7.weight f4 [128, 1568]
00000000: 98c5 acbb 88ea 913c cb43 ad3b e81b 6cbc
00000010: a603 71bb 2318 79bb 356d 5d3c 7513 5f3c
00000020: 814b 513b 286c 803c 72a9 22bc 3370 50bc
00000030: 27f1 d03b 1806 21bc 9bde 1abc 1fd7 a1bc
00000040: 24f4 efbc 2c27 edbc 683e 393c d43b aabc
00000050: 51ba 4d3c 3308 8abc 2ad4 a4bb a60e c4bc
00000060: 7ed0 a5bc 73d4 96bc 6c62 adbc 8da7 cb3b
00000070: a9b0 963c a216 623c 88f1 4fbc 6847 a33b
00000080: b4f6 873c 6db6 cdbc 4689 ff3a e380 193c
00000090: c6b7 dc3b 8317 debc 24a2 05bc 0bf4 f8ba
000000a0: bc6f a93b 6bd0 e0bc 4bb2 cebc c34d c0bc
000000b0: 86fb 383c ab82 a2bc d5bb 86bc d6db bfbc
000000c0: caa8 fdbb fb75 24bc c384 e13b d041 5abc
000000d0: d2df 8e3b f348 953c a899 2cbc 6b57 d9bc
000000e0: 88a0 ebbb 481f 9b3c be19 9cbc d997 b23a
000000f0: da74 abbc db6a 043c 827c 1ebc ccc7 ddbc
00000100: 3906 6cbc 04dd 97bc bebd e43a d38d 78bc
00000110: 3ca1 853b 4055 27bc 3b32 62bc 222d fcbc
00000120: 66d7 4e3c 0ec1 493c 64df 58bc 5bd9 75bc
00000130: ffea cbbc 69d5 bebb 35bf e3bc df98 803c
00000140: 7541 9dbc a6ae 86bc 00ed 323b 392e cf3b
00000150: 1336 fbbc 0456 b4bc 23a4 afbc c202 2e3c
00000160: 4ec8 c6bc 3cb5 473b 1b13 c1bb 6286 c2bc
00000170: 4bbe 493c e72b 9d3c 1544 383c e39c 273c
00000180: 4356 dcbb 463e 143c b116 1dbc 1606 2a3c
00000190: 483b f6bc 0652 ffbc 8a76 193c 76be 9b3c
000001a0: ad04 a2bc 034a 383b 7ccf 5b3b 32af 043c
000001b0: 8426 bebc 8485 7b3b c315 cdbc 8619 d13b
000001c0: 0f07 f73b cb0c 3b3c d892 72bb 48f7 4f3c
000001d0: 67de 9a3c eceb a9bc 5f60 98bc 2462 cbbb
000001e0: 5cc4 f1bb add0 993b 9758 913b 89db 1a3c
000001f0: bd80 f43b 66a5 48bb 490f 563c beb6 b13b
00000200: 3f61 1ebc a24e f9bc 8898 753c 7ddf 403c
00000210: df0a 9ebc c183 803c 2ca1 243c 5a54 95bc
00000220: 38e5 ab3a c636 a2bc 1779 6a3b bd82 feba
00000230: 987e 0f3c 7203 7b3c 870c ecbc f993 05bc
00000240: f5ed 8b3c ec71 413b dccc 3f3c 0ce3 473c
00000250: 1cda b2bc feea b8bc cfac e2bb 2dd6 473a
00000260: 242d 36bc 5d82 c5bc 4f77 19bb 2308 bc3a
00000270: 0051 33bc 8507 543c 331a 893c 7fd5 453c
00000280: 8303 453c 1a01 aebc a4ce 083c a05e cd3b
00000290: a2ce dcbc f12f babb 98ea f8bc 2469 7a3b
000002a0: b5b3 b4bc 458d febc 3436 f9bc c170 90ba
000002b0: 0dcf 36bb fb5f 043c 28e6 e83b 9aca cc3c
000002c0: c463 e7bc d6c4 b23b 93e8 7f3c 201b f2bc
000002d0: 26af 253c 3c33 abbb 7d63 91bc e6d5 b2bb
000002e0: b33f c1bc 1245 38bb f49c c5bc fe30 8b39
000002f0: ec70 3bbb 3399 d4ba 34f7 a43b d4c2 893c
00000300: c21c 8fbc 2f74 a1bc 1aba 5c3c d07b 62bc
00000310: aba8 c5bc 1c61 79bc 57ba 70bc 96b3 913c
00000320: 9cd8 bfbc 3313 d6bc 15c2 573b c416 f8bb
00000330: 2f36 eabc 66d0 edbc cc4b eabc c32d 9abc
00000340: a6d3 a93c 938a cdbc a738 b13b 444d 2c3c
00000350: 25c2 313c 4be8 3b3c 910d e5bc 4bc8 7cbb
00000360: eaeb c4bb 1822 913b c652 82bc 82ee e7bc
00000370: 2f0d 9b3b 59c4 a6bc aedc c5bc 1d01 f03a
00000380: b840 a03b 9d0c d03c 19ad 86bc 2cb2 233c
00000390: c599 a139 ffb3 0b3c 8fcb c4bc e492 16bc
000003a0: 7388 913c cb2f bbbc 28cd 28bc 2911 5e37
000003b0: 2682 6bbc 9dcd c33b f06d 933c c4c2 6dbc
000003c0: 877a 74bb 6531 433c 0b03 6c3c 8d76 c8bc
000003d0: d363 af3c bfc2 333c 9a42 0b3c 3f11 adbc
000003e0: 625a cbbc cbf0 923c c3f9 b7bc 952b 27bc
000003f0: 92f0 cdbc ee2c d1bc 964c 8d3c a1bf a9bc
-0.0052725784 0.017812029 0.0052876226 -0.01441095 -0.0036775856 -0.0038008771 0.0135148065 0.013615479
0.0031935873 0.015676573 -0.009928094 -0.012722063 0.006376404 -0.009828113 -0.009452487 -0.019755898
-0.02929122 -0.028949343 0.011306383 -0.020780481 0.012556628 -0.016849613 -0.0050301747 -0.023932766
-0.020241018 -0.01841185 -0.021165095 0.006215042 0.018394785 0.013799341 -0.012691863 0.0049828775
0.01659713 -0.025111401 0.0019495867 0.009369108 0.0067357747 -0.02711082 -0.008156333 -0.0018993629
0.0051707905 -0.027443131 -0.025231501 -0.02347458 0.011290437 -0.019837698 -0.016446987 -0.023420256
-0.0077410685 -0.010037894 0.0068822815 -0.013321355 0.0043601776 0.018223261 -0.010534681 -0.026530942
-0.0071907677 0.018935814 -0.019055244 0.0013625576 -0.020929743 0.008082117 -0.00967324 -0.02707281
-0.0144057805 -0.018538006 0.0017451567 -0.015170532 0.0040780585 -0.010213196 -0.013805921 -0.03078324
0.012624597 0.012314094 -0.013236854 -0.015005435 -0.024892328 -0.0058237803 -0.027801136 0.015697895
-0.019196251 -0.0164407 0.0027301908 0.006322649 -0.030665433 -0.022013672 -0.021440571 0.010620775
-0.024265435 0.0030473014 -0.00589217 -0.02374572 0.012313436 0.019185973 0.011246701 0.010230276
-0.0067241504 0.00904805 -0.00958793 0.010377428 -0.030057564 -0.031167042 0.009366641 0.019011717
-0.01977762 0.0028120286 0.0033540418 0.00809841 -0.023211725 0.0038379142 -0.02503479 0.0063812165
0.0075386832 0.011416624 -0.0037013795 0.012693234 0.018904878 -0.02074238 -0.01860064 -0.0062067676
-0.007378144 0.0046940655 0.0044356096 0.009451755 0.007461636 -0.0030616163 0.013065168 0.005423396
-0.00966674 -0.030433003 0.01498998 0.011772034 -0.019292293 0.015687825 0.010048192 -0.018228699
0.0013114577 -0.019801509 0.0035777742 -0.0019417625 0.00875821 0.015320646 -0.028814567 -0.008152955
0.01708124 0.0029517366 0.011706557 0.012200128 -0.021832518 -0.02257299 -0.006917573 0.0007623162
-0.011119161 -0.024110014 -0.002341706 0.0014345687 -0.010944605 0.012941246 0.016736126 0.012074827
0.012024763 -0.02124076 0.008350048 0.0062673837 -0.026953999 -0.0056819846 -0.0303853 0.0038209641
-0.022058347 -0.031073222 -0.030421354 -0.0011019931 -0.0027894408 0.008079524 0.007107515 0.024998952
-0.028245814 0.0054555936 0.015619415 -0.02955395 0.010112559 -0.0052246135 -0.017747635 -0.0054576276
-0.023589944 -0.002811734 -0.024122693 0.00026548648 -0.0028601242 -0.0016219973 0.0050343517 0.016816534
-0.017469767 -0.019708721 0.013472104 -0.0138234645 -0.024128279 -0.015220907 -0.014692864 0.017785829
-0.023418717 -0.026132202 0.0032922078 -0.0075710732 -0.02859029 -0.029030036 -0.028600596 -0.018820649
0.020730805 -0.025090491 0.005408365 0.010516468 0.01084951 0.011468957 -0.02796057 -0.0038571532
-0.0060095685 0.004429113 -0.01590861 -0.028311972 0.004731796 -0.020357298 -0.02415308 0.0018310879
0.0048905276 0.02539664 -0.016439961 0.00999121 0.0003082288 0.008526801 -0.024022846 -0.009190295
0.01776526 -0.022849938 -0.010302819 1.3236227e-05 -0.0143742915 0.0059754387 0.017996758 -0.014511768
-0.0037304477 0.011913632 0.014405022 -0.024470592 0.021409905 0.010971724 0.008499766 -0.021126388
-0.024823371 0.017937085 -0.022457963 -0.010203262 -0.025139127 -0.02553412 0.017248433 -0.020721259

net.7.bias f4 [128]
00000000: 6dae 2c3a 1d07 ccbc 11c4 4c3d a293 463d
00000010: 28be 8a3c cb91 423c a073 debc ba89 1dbc
00000020: 8983 bcbb 38ce 05bd 3179 033c 4384 393d
00000030: f8fd 0c3d 6aab 09bd 4d91 393a 046e 593c
00000040: 251f b93b 0163 02bd ce32 033c 8533 813c
00000050: 4b47 d6bc 736d 14bc 8e94 0e3d 0b16 c4bc
00000060: 3c3b cdbc 22da 32bd 0c1d 86bb 87a3 feba
00000070: 42b2 333c d963 373b 840a 5c3b 75d1 8c3c
00000080: 434a a6bb bd7f 8e3c 3890 d53c 73c7 7abc
00000090: 47b7 ccbc cc10 a0bc 77f1 5bbb c6ef ad3a
000000a0: 0a70 c63c e2c1 603c fee2 5bbb 0599 1ebd
000000b0: 0638 26bd 9cbc b73c 2afb db3b 279e 033c
000000c0: 30e6 29bc 4ba1 023d 22b7 da3b 8fda 4dbc
000000d0: f2ad 18ba 7778 0a3d cd67 1dbd ca0f dc3c
000000e0: 9d38 473c 0443 483b 5073 0d3a 6e2b f8ba
000000f0: 4f71 c9bc fb0e 103d e61c c93c 7bb3 f7bc
00000100: ada7 843c 30cd 27bd 995e efbc 65f0 0b3c
00000110: c400 80bc 1e7d 043d 7ec7 1b3c e8de 8d3c
00000120: e46d cabc ca83 2abb b236 97bc 2d63 8a3b
00000130: b583 813c 7ecc e23b 335a c73c f99a 4fbb
00000140: b024 f7bb 55a5 f5bc e27e 66bc 61eb d0bb
00000150: 753e ce3c 7205 a13c cc1e 48bb 6da5 e13b
00000160: 9830 023d dc7c bfbc 71bf 7ebb fa13 77bb
00000170: a22e 263d 51fd 723c 422c 973c b91e 5f3c
00000180: a309 4abc 0ee1 fb3c 56fc 233d 703f afba
00000190: 91af c43b 5cf3 f1bc 169f 2a3c dc70 b63c
000001a0: ced5 f43b da4f 52ba a6e0 94bc 9713 4e3c
000001b0: eb7a 913b fddd 633b 5e3d 14bc 54c0 b23c
000001c0: 1cce 933b 89c0 d6bc 8d15 90bc fa08 e93b
000001d0: 184a 9c3c 6161 afbc d36d 0c3c 7950 7dbc
000001e0: 3bba 923a c428 91bc e4d8 b0bb 7237 64bc
000001f0: f313 c23b 0b28 143c a719 9a3c a93f f9bc
0.0006587271 -0.024905736 0.04999167 0.048480637 0.016936377 0.01187558 -0.027154744 -0.009615356
-0.005752985 -0.03266737 0.0080245 0.04529215 0.03442189 -0.03361074 0.00070788414 0.013270859
0.0056494647 -0.0318327 0.008007718 0.015771637 -0.026157042 -0.009059298 0.03480964 -0.023936292
-0.02505266 -0.04366506 -0.004092818 -0.0019427397 0.010967793 0.0027983098 0.0033575604 0.01718972
-0.0050747707 0.017394895 0.026069745 -0.015306341 -0.024989737 -0.01953926 -0.0033560672 0.0013270311
0.024223346 0.0137181 -0.0033552046 -0.03872015 -0.040580772 0.022428803 0.0067132907 0.008033312
-0.010369822 0.031892102 0.006674663 -0.012564315 -0.000582426 0.03380629 -0.03842907 0.026862998
0.012159494 0.0030557523 0.0005395906 -0.0018933841 -0.024590163 0.035170536 0.024549913 -0.03023695
0.016193235 -0.040967166 -0.029219912 0.008541201 -0.015625365 0.032345884 0.009508012 0.017318204
-0.024710603 -0.0026018494 -0.018458698 0.0042232485 0.015809873 0.00692135 0.024335003 -0.0031678064
-0.0075422153 -0.029986063 -0.014068337 -0.0063757156 0.025176266 0.019655917 -0.0030535934 0.0068861754
0.031784624 -0.023374967 -0.0038871432 -0.0037701116 0.040571816 0.014830903 0.018453721 0.013618165
-0.012331399 0.030746963 0.04003557 -0.0013370346 0.0060023745 -0.029534988 0.010413906 0.022270612
0.0074717766 -0.0008022763 -0.018173527 0.012577913 0.004439702 0.0034769766 -0.009047834 0.021820225
0.004510654 -0.026214855 -0.017588401 0.007111666 0.0190783 -0.021408739 0.008571106 -0.015461081
0.0011194417 -0.017719634 -0.005396949 -0.013929235 0.0059227883 0.00904275 0.01881106 -0.030425863

net.9.weight f4 [10, 128]
00000000: bcc2 1ebd d864 9fbc cd05 fe3d a4ca 8b3c
00000010: 18ed 97bd bd03 573d 30e6 28be 46e4 60bd
00000020: 1260 20bc be38 b83c b574 a53d 7e42 583d
00000030: d734 08be 3496 bc3d 685c 1dbd 1f14 97bc
00000040: 0dd3 183d 7837 a83d 30d0 95bc dc93 863c
00000050: f9e6 3d3d 58d0 143d e829 033d 4097 52bd
00000060: 6f9f 0ebe d5e4 b9bd 95f4 98bd 29dd 493b
00000070: d9db bcbc b67b 6ebd 6538 873d cbc1 2a3d
00000080: 6245 8c3d 827e c0bc 8277 f13d ba1d 76bc
00000090: dbfa e73b eb3f 70bd 9e60 5abd e2c7 6f3c
000000a0: 4e90 913b 4442 bfbd aae3 3a3d e91b 06bd
000000b0: 4251 543d 8e49 cc3d 4cf6 ad3b e140 82bc
000000c0: 301f 063d 046a 1dba 96ca debc 1223 703d
000000d0: c008 c03a 8a4a bfbd 7ba1 93bd cc73 ce3d
000000e0: cbc9 71bd 914a b63d 69ef 91bd d30a 633d
000000f0: fd2a 3fbd 3744 24be ed2f 11bd edc4 cabc
00000100: b106 783c f0d5 26be d748 1bbd e378 8abb
00000110: 7fd3 13be fd1e 44be 451b 9a3d a6cc d63c
00000120: 073a b53a 7c1a ba3d 0d30 22bd 74db 95bd
00000130: 0710 c8bd a2e1 113d a70d f03d f710 bfbd
00000140: 3161 e93b b19f 213d fa48 d13b 951f c03d
00000150: f271 acbc 53fb ef3d 8f97 febc e2d1 2bbd
00000160: d320 10be cea7 6fbd bff0 30bd 9f79 92bd
00000170: 9f01 ac3d 8d23 e7bd 9e48 47bd fb2b 253d
00000180: 5e0b 8bbb 9930 eebd 0dfa ec3d edd1 09bc
00000190: 30a2 063c 2565 683c 3fc7 b6bc 24a6 7b3d
000001a0: 8fda 47bd f655 e63b 33ce d2bd c64b 1a3d
000001b0: a3bd a23c 4b5e 88bd 1bf1 5a3d a2dc 4bbe
000001c0: 770c f5bd 4bc6 883b b013 a6bd 5286 2dbe
000001d0: d53e 72bd 088e a33d 9436 d83d 417d 183c
000001e0: 5e52 d43d 4522 d6bd 93c3 43be bebd c03b
000001f0: ea22 68bd ea65 183d 5972 7d3d 1657 513c
00000200: a250 9fbd 5e32 3abd 3ca5 97bd a67b 5fbd
00000210: eec5 98bd 0fd8 07be d73d 0bbe 4c42 d8bc
00000220: 2de2 8bbd e13b cfbd 1991 4dbd 8442 a33d
00000230: 99d5 df3d bef4 f7bd 0109 5abd b4ee 9c3d
00000240: 2619 823d 2854 96bd ce0f cd3d 8bb2 3ebd
00000250: 6694 8dbc a0c7 6abd 1f4d 32bd 59f4 1cbe
00000260: 11fa 31be dc7e c0bd c0a5 fabc dd36 33bc
00000270: db77 86bd ba6b af3c 8991 cebd cc64 afbd
00000280: b459 aabc 9eac 023b 52c7 26bd e4ca 2ebc
00000290: 1a0a 73bd fe6e 993d e2f6 70bd 1ea4 333d
000002a0: deb2 44bd 95db 333d b861 253d 3212 113d
000002b0: 49c2 423d abe0 81bd e7e4 0d3e 298a a03d
000002c0: 45fb a8bd ee28 e53d 3114 153d 8fd0 f8bd
000002d0: e17d a13d 6ce0 d93d cf49 9a3c 54d8 ddbd
000002e0: aa9b 3ebd a49f 033d 9234 913d c92c ca3d
000002f0: 46eb 30be ff6d d83d 5e96 03be 57b6 45bd
00000300: 1190 6e3c 2f24 24be f008 85bc 04a9 98bd
00000310: 8e77 febd 5268 a43c 6ffb d83d 6872 8d3d
00000320: f2eb b13d dacd 05bd 1ac4 c4bc 0c67 013c
00000330: 9416 9b3c 271f b63c ea67 57be 2373 dabd
00000340: 9461 b93d eec1 873d 61ca ea3c 9ebd 4c3d
00000350: e2b0 47bc 219c c33d 1f53 19be 914e fbbd
00000360: a0bb 953d 3dca b43b 6925 4abd c5c5 b7bd
00000370: bdbc a73c 45e1 8b3d dc2e e6bd 2b49 93bd
00000380: 6965 e73b 1cc2 a03d 4e8b 58be feeb c33d
00000390: f7e3 15be 90ab 383d 9b92 babc adbf 38be
000003a0: 70d7 623c f925 fd3c 6295 4fbd 439b 90bd
000003b0: c182 5dbd f44b 69bd 7365 933d a7cd e83d
000003c0: 6608 f2bd 83df 71bd 4739 a0bd 8746 b53d
000003d0: 1c84 61bd c345 363c c029 a2bc 2298 9c3d
000003e0: f538 35be 322a aa3d 9abe e8bc a6c6 733c
000003f0: e5d4 0c3d e02e 3d3d aa6a ce3b 7b2e b7bc
-0.038759932 -0.019457266 0.1240345 0.0170644 -0.07418269 0.0524938 -0.1649406 -0.0549052
-0.00978853 0.022487994 0.08078901 0.052797787 -0.13301407 0.092083365 -0.038418204 -0.018442212
0.03731065 0.08213705 -0.018287748 0.016427927 0.04636285 0.036331505 0.032022387 -0.051413774
-0.13928007 -0.09076849 -0.07468525 0.0030801988 -0.02305405 -0.05822345 0.06602553 0.04168872
0.06849171 -0.023497824 0.117903724 -0.015021736 0.007079465 -0.058654707 -0.053314798 0.014635058
0.0044422513 -0.09338811 0.045627274 -0.03274146 0.051835306 0.09974967 0.005308902 -0.015900077
0.032744586 -0.0006004872 -0.02719621 0.058627196 0.0014651045 -0.09340389 -0.07208534 0.1008068
-0.059030335 0.08900941 -0.07125742 0.055430245 -0.046671856 -0.16041647 -0.035446096 -0.024752105
0.015138314 -0.16292548 -0.037911262 -0.0042258366 -0.14436148 -0.19152446 0.075247325 0.02622063
0.0013826498 0.09087083 -0.039596606 -0.07317248 -0.09768682 0.03561557 0.11721354 -0.09329408
0.007122182 0.039458934 0.0063868733 0.09381024 -0.021050427 0.11717858 -0.031078128 -0.041948207
-0.14075021 -0.05850964 -0.043198343 -0.07152104 0.08398747 -0.11286078 -0.048653238 0.040325146
-0.0042432984 -0.11630363 0.11571131 -0.008411867 0.008217379 0.014184271 -0.022311805 0.06143774
-0.048792418 0.0070292903 -0.10293236 0.03766992 0.019865816 -0.0665861 0.053452592 -0.19908383
-0.11965268 0.004174029 -0.08109224 -0.1694577 -0.059141953 0.07986075 0.10557285 0.009307207
0.10367273 -0.10455755 -0.19117574 0.005881994 -0.05667392 0.037206568 0.06187663 0.012777111
-0.07779051 -0.04545819 -0.07404563 -0.05456128 -0.07459627 -0.13266014 -0.13597809 -0.0263988
-0.06830249 -0.10118843 -0.050187204 0.07971671 0.109294124 -0.12107228 -0.053231243 0.076627165
0.06352453 -0.0734027 0.1001278 -0.04655699 -0.017282676 -0.057319283 -0.04353058 -0.15327586
-0.17380549 -0.093991965 -0.030596614 -0.010938373 -0.06565829 0.021413673 -0.100863524 -0.08564147
-0.020794727 0.0019939314 -0.04071743 -0.01066849 -0.059335805 0.07491873 -0.058829196 0.043857686
-0.048022144 0.04391058 0.040376395 0.035417743 0.047548566 -0.0634168 0.1385685 0.07838852
-0.08251051 0.11189447 0.03639621 -0.121491544 0.078853376 0.10638508 0.018834023 -0.10832277
-0.04653517 0.032134667 0.07090105 0.09871823 -0.1727725 0.10567855 -0.1285033 -0.048269596
0.014560715 -0.16029428 -0.016239613 -0.07454112 -0.12425147 0.020069275 0.10594832 0.06906587
0.08687581 -0.03266702 -0.02401929 0.007898103 0.018931665 0.022231651 -0.21035734 -0.10666492
0.09051815 0.06628786 0.028660955 0.04998552 -0.012188168 0.095512636 -0.14973114 -0.12270845
0.07311177 0.0055172727 -0.049352083 -0.089732684 0.02047574 0.06830076 -0.112394065 -0.0719169
0.0070616496 0.078495234 -0.2114689 0.09566496 -0.14637743 0.04508549 -0.022774985 -0.18041869
0.01384531 0.030901896 -0.050679572 -0.07060864 -0.054079775 -0.0569572 0.07197084 0.1136735
-0.11818008 -0.059051048 -0.07823425 0.08851343 -0.05505763 0.011125031 -0.019795299 0.076462045
-0.17697509 0.08308829 -0.028411198 0.014878904 0.03438272 0.04618728 0.0062993364 -0.02236103

net.9.bias f4 [10]
00000000: a02b 553c 0884 333d a33e 163d 484f 893c
00000010: 35bb d9bc 7231 303c 950c 813d 1e2d 983d
00000020: 7f40 d53b 5c74 fdbc
0.013010889 0.043827087 0.03668083 0.016761437 -0.026578525 0.010753976 0.06301228 0.074304804
0.0065079327 -0.030939274
